…
net_params={'wl_pos_enc': False, 'full_graph': False, 'edge_feat': False, 'L': 3, 'hidden_dim': 64, 'out_dim': 64, 'pos_enc': True, 'lap_pos_enc': True, 'pos_enc_dim': 8, 'layer_norm': False, 'residual': True, 'readout': 'sum', 'n_mlp_GIN': 2, 'learn_eps_GIN': True, 'neighbor_aggr_GIN': 'sum', 'in_feat_dropout': 0.0, 'dropout': 0.0, 'batch_norm': True, 'device': device(type='cuda'), 'gpu_id': 3, 'batch_size': 20, 'num_atom_type': 28, 'num_bond_type': 4, 'total_param': 27783}

GINNet(
  (ginlayers): ModuleList(
    (0): GINLayer(
      (apply_func): ApplyNodeFunc(
        (mlp): MLP(
          (linears): ModuleList(
            (0): Linear(in_features=64, out_features=64, bias=True)
            (1): Linear(in_features=64, out_features=64, bias=True)
          )
          (batch_norms): ModuleList(
            (0): BatchNorm1d(64, eps=1e-05, momentum=0.1, affine=True, track_running_stats=True)
          )
        )
      )
      (bn_node_h): BatchNorm1d(64, eps=1e-05, momentum=0.1, affine=True, track_running_stats=True)
    )
    (1): GINLayer(
      (apply_func): ApplyNodeFunc(
        (mlp): MLP(
          (linears): ModuleList(
            (0): Linear(in_features=64, out_features=64, bias=True)
            (1): Linear(in_features=64, out_features=64, bias=True)
          )
          (batch_norms): ModuleList(
            (0): BatchNorm1d(64, eps=1e-05, momentum=0.1, affine=True, track_running_stats=True)
          )
        )
      )
      (bn_node_h): BatchNorm1d(64, eps=1e-05, momentum=0.1, affine=True, track_running_stats=True)
    )
    (2): GINLayer(
      (apply_func): ApplyNodeFunc(
        (mlp): MLP(
          (linears): ModuleList(
            (0): Linear(in_features=64, out_features=64, bias=True)
            (1): Linear(in_features=64, out_features=64, bias=True)
          )
          (batch_norms): ModuleList(
            (0): BatchNorm1d(64, eps=1e-05, momentum=0.1, affine=True, track_running_stats=True)
          )
        )
      )
      (bn_node_h): BatchNorm1d(64, eps=1e-05, momentum=0.1, affine=True, track_running_stats=True)
    )
  )
  (embedding_h): Embedding(28, 64)
  (linears_prediction): ModuleList(
    (0): Linear(in_features=64, out_features=1, bias=True)
    (1): Linear(in_features=64, out_features=1, bias=True)
    (2): Linear(in_features=64, out_features=1, bias=True)
    (3): Linear(in_features=64, out_features=1, bias=True)
  )
  (pool): SumPooling()
)

Total Parameters: 27783


    FINAL RESULTS
TEST MAE: 0.3779
TRAIN MAE: 0.3100


    Convergence Time (Epochs): 174.0000
Total Time Taken: 0.5875 hrs
Average Time Per Epoch: 10.7584 s


